…
,"elapsed":944,"user":{"displayName":"Tom Chamberlain","userId":"18207368645752322846"}},"outputId":"7c6786c7-69ec-48b7-c026-1f1f564ba952"},"outputs":[{"output_type":"stream","name":"stdout","text":["Model: \"model\"\n","_________________________________________________________________\n"," Layer (type)                Output Shape              Param #   \n","=================================================================\n"," input_1 (InputLayer)        [(None, 180, 180, 3)]     0         \n","                                                                 \n"," rescaling (Rescaling)       (None, 180, 180, 3)       0         \n","                                                                 \n"," conv2d (Conv2D)             (None, 178, 178, 32)      896       \n","                                                                 \n"," max_pooling2d (MaxPooling2D  (None, 89, 89, 32)       0         \n"," )                                                               \n","                                                                 \n"," conv2d_1 (Conv2D)           (None, 87, 87, 64)        18496     \n","                                                                 \n"," max_pooling2d_1 (MaxPooling  (None, 43, 43, 64)       0         \n"," 2D)                                                             \n","                                                                 \n"," conv2d_2 (Conv2D)           (None, 41, 41, 128)       73856     \n","                                                                 \n"," max_pooling2d_2 (MaxPooling  (None, 20, 20, 128)      0         \n"," 2D)                                                             \n","                                                                 \n"," conv2d_3 (Conv2D)           (None, 18, 18, 256)       295168    \n","                                                                 \n"," max_pooling2d_3 (MaxPooling  (None, 9, 9, 256)        0         \n"," 2D)                                                             \n","                                                                 \n"," conv2d_4 (Conv2D)           (None, 7, 7, 256)         590080    \n","                                                                 \n"," flatten (Flatten)           (None, 12544)             0         \n","                                                                 \n"," dense (Dense)               (None, 1)                 12545     \n","                                                                 \n","=================================================================\n","Total params: 991,041\n","Trainable params: 991,041\n","Non-trainable params: 0\n","_________________________________________________________________\n"]}],"source":["model.summary()"]},{"cell_type":"markdown","metadata":{"id":"v9D-s2k1X2JL"},"source
…
0,"elapsed":14,"user":{"displayName":"Tom Chamberlain","userId":"18207368645752322846"}},"outputId":"45673f3f-ca12-4350-b047-040740070de7"},"outputs":[{"output_type":"stream","name":"stdout","text":["Model: \"vgg16\"\n","_________________________________________________________________\n"," Layer (type)                Output Shape              Param #   \n","=================================================================\n"," input_3 (InputLayer)        [(None, 180, 180, 3)]     0         \n","                                                                 \n"," block1_conv1 (Conv2D)       (None, 180, 180, 64)      1792      \n","                                                                 \n"," block1_conv2 (Conv2D)       (None, 180, 180, 64)      36928     \n","                                                                 \n"," block1_pool (MaxPooling2D)  (None, 90, 90, 64)        0         \n","                                                                 \n"," block2_conv1 (Conv2D)       (None, 90, 90, 128)       73856     \n","                                                                 \n"," block2_conv2 (Conv2D)       (None, 90, 90, 128)       147584    \n","                                                                 \n"," block2_pool (MaxPooling2D)  (None, 45, 45, 128)       0         \n","                                                                 \n"," block3_conv1 (Conv2D)       (None, 45, 45, 256)       295168    \n","                                                                 \n"," block3_conv2 (Conv2D)       (None, 45, 45, 256)       590080    \n","                                                                 \n"," block3_conv3 (Conv2D)       (None, 45, 45, 256)       590080    \n","                                                                 \n"," block3_pool (MaxPooling2D)  (None, 22, 22, 256)       0         \n","                                                                 \n"," block4_conv1 (Conv2D)       (None, 22, 22, 512)       1180160   \n","                                                                 \n"," block4_conv2 (Conv2D)       (None, 22, 22, 512)       2359808   \n","                                                                 \n"," block4_conv3 (Conv2D)       (None, 22, 22, 512)       2359808   \n","                                                                 \n"," block4_pool (MaxPooling2D)  (None, 11, 11, 512)       0         \n","                                                                 \n"," block5_conv1 (Conv2D)       (None, 11, 11, 512)       2359808   \n","                                                                 \n"," block5_conv2 (Conv2D)       (None, 11, 11, 512)       2359808   \n","                                                                 \n"," block5_conv3 (Conv2D)       (None, 11, 11, 512)       2359808   \n","                                                                 \n"," block5_pool (MaxPooling2D)  (None, 5, 5, 512)         0         \n","                                                                 \n","=================================================================\n","Total params: 14,714,688\n","Trainable params: 14,714,688\n","Non-trainable params: 0\n","_________________________________________________________________\n"]}],"source":["conv_base.summary()"]},{"cell_type":"markdown","metadata":{"id":"gQGwoAsc
…
